…
Requirement already satisfied: charset-normalizer~=2.0.0 in /Users/gmmyung/miniconda3/envs/gazetrack/lib/python3.8/site-packages (from requests<3,>=2.0.0->wandb) (2.0.12)
Requirement already satisfied: urllib3<1.27,>=1.21.1 in /Users/gmmyung/miniconda3/envs/gazetrack/lib/python3.8/site-packages (from requests<3,>=2.0.0->wandb) (1.26.8)
Requirement already satisfied: idna<4,>=2.5 in /Users/gmmyung/miniconda3/envs/gazetrack/lib/python3.8/site-packages (from requests<3,>=2.0.0->wandb) (3.3)
Requirement already satisfied: certifi>=2017.4.17 in /Users/gmmyung/miniconda3/envs/gazetrack/lib/python3.8/site-packages (from requests<3,>=2.0.0->wandb) (2021.5.30)
RoboVisV1(
  (w): Conv1d(8, 8, kernel_size=(3,), stride=(1,), padding=same)
  (w1): Conv1d(2, 8, kernel_size=(3,), stride=(1,), padding=same)
  (a1): Sequential(
    (0): ReLU(inplace=True)
    (1): MaxPool1d(kernel_size=2, stride=2, padding=0, dilation=1, ceil_mode=False)
  )
  (w2): Sequential(
    (0): Conv1d(8, 8, kernel_size=(3,), stride=(1,), padding=same)
    (1): ReLU(inplace=True)
    (2): MaxPool1d(kernel_size=2, stride=2, padding=0, dilation=1, ceil_mode=False)
  )
)
RoboVisV1(
  (w): Conv1d(8, 8, kernel_size=(3,), stride=(1,), padding=same)
  (w1): Conv1d(2, 8, kernel_size=(3,), stride=(1,), padding=same)
  (a1): Sequential(
    (0): ReLU(inplace=True)
    (1): MaxPool1d(kernel_size=2, stride=2, padding=0, dilation=1, ceil_mode=False)
  )
  (w2): Sequential(
    (0): Conv1d(8, 8, kernel_size=(3,), stride=(1,), padding=same)
    (1): ReLU(inplace=True)
    (2): MaxPool1d(kernel_size=2, stride=2, padding=0, dilation=1, ceil_mode=False)
  )
)
RoboVisV1(
  (w): Conv1d(8, 8, kernel_size=(3,), stride=(1,), padding=same)
  (w1): Conv1d(2, 8, kernel_size=(3,), stride=(1,), padding=same)
  (a1): Sequential(
    (0): ReLU(inplace=True)
    (1): MaxPool1d(kernel_size=2, stride=2, padding=0, dilation=1, ceil_mode=False)
  )
  (w2): Sequential(
    (0): Conv1d(8, 8, kernel_size=(3,), stride=(1,), padding=same)
    (1): ReLU(inplace=True)
    (2): MaxPool1d(kernel_size=2, stride=2, padding=0, dilation=1, ceil_mode=False)
  )
)
RoboVisV1(
  (w): Conv1d(8, 8, kernel_size=(3,), stride=(1,), padding=same)
  (w1): Conv1d(2, 8, kernel_size=(3,), stride=(1,), padding=same)
  (a1): Sequential(
    (0): ReLU(inplace=True)
    (1): MaxPool1d(kernel_size=2, stride=2, padding=0, dilation=1, ceil_mode=False)
  )
  (w2): Sequential(
    (0): Conv1d(8, 8, kernel_size=(3,), stride=(1,), padding=same)
    (1): ReLU(inplace=True)
    (2): MaxPool1d(kernel_size=2, stride=2, padding=0, dilation=1, ceil_mode=False)
  )
)
wandb: Network error (ReadTimeout), entering retry loop.
RoboVisV1(
  (w): Conv1d(8, 8, kernel_size=(3,), stride=(1,), padding=same)
  (w1): Conv1d(2, 8, kernel_size=(3,), stride=(1,), padding=same)
  (a1): Sequential(
    (0): ReLU(inplace=True)
    (1): MaxPool1d(kernel_size=2, stride=2, padding=0, dilation=1, ceil_mode=False)
  )
  (w2): Sequential(
    (0): Conv1d(8, 8, kernel_size=(3,), stride=(1,), padding=same)
    (1): ReLU(inplace=True)
    (2): MaxPool1d(kernel_size=2, stride=2, padding=0, dilation=1, ceil_mode=False)
  )
)
RoboVisV1(
  (w): Conv1d(8, 8, kernel_size=(3,), stride=(1,), padding=same)
  (w1): Conv1d(2, 8, kernel_size=(3,), stride=(1,), padding=same)
  (a1): Sequential(
    (0): ReLU(inplace=True)
    (1): MaxPool1d(kernel_size=2, stride=2, padding=0, dilation=1, ceil_mode=False)
  )
  (w2): Sequential(
    (0): Conv1d(8, 8, kernel_size=(3,), stride=(1,), padding=same)
    (1): ReLU(inplace=True)
    (2): MaxPool1d(kernel_size=2, stride=2, padding=0, dilation=1, ceil_mode=False)
  )
)
RoboVisV1(
  (w): Conv1d(8, 8, kernel_size=(3,), stride=(1,), padding=same)
  (w1): Conv1d(2, 8, kernel_size=(3,), stride=(1,), padding=same)
  (a1): Sequential(
    (0): ReLU(inplace=True)
    (1): MaxPool1d(kernel_size=2, stride=2, padding=0, dilation=1, ceil_mode=False)
  )
  (w2): Sequential(
    (0): Conv1d(8, 8, kernel_size=(3,), stride=(1,), padding=same)
    (1): ReLU(inplace=True)
    (2): MaxPool1d(kernel_size=2, stride=2, padding=0, dilation=1, ceil_mode=False)
  )
)
RoboVisV1(
  (w): Conv1d(8, 8, kernel_size=(3,), stride=(1,), padding=same)
  (w1): Conv1d(2, 8, kernel_size=(3,), stride=(1,), padding=same)
  (a1): Sequential(
    (0): ReLU(inplace=True)
    (1): MaxPool1d(kernel_size=2, stride=2, padding=0, dilation=1, ceil_mode=False)
  )
  (w2): Sequential(
    (0): Conv1d(8, 8, kernel_size=(3,), stride=(1,), padding=same)
    (1): ReLU(inplace=True)
    (2): MaxPool1d(kernel_size=2, stride=2, padding=0, dilation=1, ceil_mode=False)
  )
)
RoboVisV1(
  (w): Conv1d(8, 8, kernel_size=(3,), stride=(1,), padding=same)
  (w1): Conv1d(2, 8, kernel_size=(3,), stride=(1,), padding=same)
  (a1): Sequential(
    (0): ReLU(inplace=True)
    (1): MaxPool1d(kernel_size=2, stride=2, padding=0, dilation=1, ceil_mode=False)
  )
  (w2): Sequential(
    (0): Conv1d(8, 8, kernel_size=(3,), stride=(1,), padding=same)
    (1): ReLU(inplace=True)
    (2): MaxPool1d(kernel_size=2, stride=2, padding=0, dilation=1, ceil_mode=False)
  )
)
[W NNPACK.cpp:79] Could not initialize NNPACK! Reason: Unsupported hardware.
RoboVisV1(
  (w): Conv1d(8, 8, kernel_size=(3,), stride=(1,), padding=same)
  (w1): Conv1d(2, 8, kernel_size=(3,), stride=(1,), padding=same)
  (a1): Sequential(
    (0): ReLU(inplace=True)
    (1): MaxPool1d(kernel_size=2, stride=2, padding=0, dilation=1, ceil_mode=False)
  )
  (w2): Sequential(
    (0): Conv1d(8, 8, kernel_size=(3,), stride=(1,), padding=same)
    (1): ReLU(inplace=True)
    (2): MaxPool1d(kernel_size=2, stride=2, padding=0, dilation=1, ceil_mode=False)
  )
)
RoboVisV1(
  (w): Conv1d(8, 8, kernel_size=(3,), stride=(1,), padding=same)
  (w1): Conv1d(2, 8, kernel_size=(3,), stride=(1,), padding=same)
  (a1): Sequential(
    (0): ReLU(inplace=True)
    (1): MaxPool1d(kernel_size=2, stride=2, padding=0, dilation=1, ceil_mode=False)
  )
  (w2): Sequential(
    (0): Conv1d(8, 8, kernel_size=(3,), stride=(1,), padding=same)
    (1): ReLU(inplace=True)
    (2): MaxPool1d(kernel_size=2, stride=2, padding=0, dilation=1, ceil_mode=False)
  )
)
/Users/gmmyung/miniconda3/envs/gazetrack/lib/python3.8/site-packages/torch/nn/functional.py:652: UserWarning: Named tensors and all their associated APIs are an experimental feature and subject to change. Please do not use them for anything important until they are released as stable. (Triggered internally at  ../c10/core/TensorImpl.h:1156.)
  return torch.max_pool1d(input, kernel_size, stride, padding, dilation, ceil_mode)
RoboVisV1(
  (w): Conv1d(8, 8, kernel_size=(3,), stride=(1,), padding=same)
  (w1): Conv1d(2, 8, kernel_size=(3,), stride=(1,), padding=same)
  (a1): Sequential(
    (0): ReLU(inplace=True)
    (1): MaxPool1d(kernel_size=2, stride=2, padding=0, dilation=1, ceil_mode=False)
  )
  (w2): Sequential(
    (0): Conv1d(8, 8, kernel_size=(3,), stride=(1,), padding=same)
    (1): ReLU(inplace=True)
    (2): MaxPool1d(kernel_size=2, stride=2, padding=0, dilation=1, ceil_mode=False)
  )
)
torch.Size([1, 8, 64])
RoboVisV1(
  (w): Conv1d(8, 8, kernel_size=(3,), stride=(1,), padding=same)
  (w1): Conv1d(2, 8, kernel_size=(3,), stride=(1,), padding=same)
  (a1): Sequential(
    (0): ReLU(inplace=True)
    (1): MaxPool1d(kernel_size=2, stride=2, padding=0, dilation=1, ceil_mode=False)
  )
  (w2): Sequential(
    (0): Conv1d(8, 8, kernel_size=(3,), stride=(1,), padding=same)
    (1): ReLU(inplace=True)
    (2): MaxPool1d(kernel_size=2, stride=2, padding=0, dilation=1, ceil_mode=False)
  )
)
torch.Size([1, 8, 64])
RoboVisV1(
  (w): Conv1d(8, 8, kernel_size=(3,), stride=(1,), padding=same)
  (w1): Conv1d(2, 8, kernel_size=(3,), stride=(1,), padding=same)
  (a1): Sequential(
    (0): ReLU(inplace=True)
    (1): MaxPool1d(kernel_size=2, stride=2, padding=0, dilation=1, ceil_mode=False)
  )
  (w2): Sequential(
    (0): Conv1d(8, 8, kernel_size=(3,), stride=(1,), padding=same)
    (1): ReLU(inplace=True)
    (2): MaxPool1d(kernel_size=2, stride=2, padding=0, dilation=1, ceil_mode=False)
  )
)
torch.Size([1, 8, 64])
torch.Size([1, 8, 128])
RoboVisV1(
  (w): Conv1d(8, 8, kernel_size=(3,), stride=(1,), padding=same)
  (w1): Conv1d(2, 8, kernel_size=(3,), stride=(1,), padding=same)
  (a1): Sequential(
    (0): ReLU(inplace=True)
    (1): MaxPool1d(kernel_size=2, stride=2, padding=0, dilation=1, ceil_mode=False)
  )
  (w2): Sequential(
    (0): Conv1d(8, 8, kernel_size=(3,), stride=(1,), padding=same)
    (1): ReLU(inplace=True)
    (2): MaxPool1d(kernel_size=2, stride=2, padding=0, dilation=1, ceil_mode=False)
  )
)
self.h tensor([[[0.0540, 0.0540, 0.0540,  ..., 0.0540, 0.0540, 0.0540],
         [0.1008, 0.1008, 0.1008,  ..., 0.1008, 0.1008, 0.1008],
         [0.4415, 0.4415, 0.4415,  ..., 0.4415, 0.4415, 0.4415],
         ...,
         [0.0000, 0.0000, 0.0000,  ..., 0.0000, 0.0000, 0.0000],
         [0.0000, 0.0000, 0.0000,  ..., 0.0000, 0.0000, 0.0000],
         [0.2256, 0.2256, 0.2256,  ..., 0.2256, 0.2256, 0.2256]]],
       grad_fn=<SqueezeBackward1>)
torch.Size([1, 8, 64])
torch.Size([1, 8, 128])
RoboVisV1(
  (w): Conv1d(8, 8, kernel_size=(3,), stride=(1,), padding=same)
  (w1): Conv1d(2, 8, kernel_size=(3,), stride=(1,), padding=same)
  (a1): Sequential(
    (0): ReLU(inplace=True)
    (1): MaxPool1d(kernel_size=2, stride=2, padding=0, dilation=1, ceil_mode=False)
  )
  (w2): Sequential(
    (0): Conv1d(8, 8, kernel_size=(3,), stride=(1,), padding=same)
    (1): ReLU(inplace=True)
    (2): MaxPool1d(kernel_size=2, stride=2, padding=0, dilation=1, ceil_mode=False)
  )
)
self.h torch.Size([1, 8, 128])
torch.Size([1, 8, 64])
torch.Size([1, 8, 128])
RoboVisV1(
  (w): Conv1d(8, 8, kernel_size=(3,), stride=(1,), padding=same)
  (w1): Conv1d(2, 8, kernel_size=(3,), stride=(1,), padding=same)
  (a1): Sequential(
    (0): ReLU(inplace=True)
    (1): MaxPool1d(kernel_size=2, stride=2, padding=0, dilation=1, ceil_mode=False)
  )
  (w2): Sequential(
    (0): Conv1d(8, 8, kernel_size=(3,), stride=(1,), padding=same)
    (1): ReLU(inplace=True)
    (2): MaxPool1d(kernel_size=2, stride=2, padding=0, dilation=1, ceil_mode=False)
  )
)
self.h torch.Size([1, 8, 256])
self.A torch.Size([1, 2, 256])
torch.Size([1, 8, 64])
torch.Size([1, 8, 128])
self.h torch.Size([1, 8, 128])
self.A torch.Size([1, 2, 256])
RoboVisV1(
  (w): Conv1d(8, 8, kernel_size=(3,), stride=(1,), padding=same)
  (w1): Conv1d(2, 8, kernel_size=(3,), stride=(1,), padding=same)
  (a1): Sequential(
    (0): ReLU(inplace=True)
    (1): MaxPool1d(kernel_size=2, stride=2, padding=0, dilation=1, ceil_mode=False)
  )
  (w2): Sequential(
    (0): Conv1d(8, 8, kernel_size=(3,), stride=(1,), padding=same)
    (1): ReLU(inplace=True)
    (2): MaxPool1d(kernel_size=2, stride=2, padding=0, dilation=1, ceil_mode=False)
  )
)
self.h torch.Size([1, 8, 256])
self.A torch.Size([1, 8, 256])
torch.Size([1, 8, 64])
torch.Size([1, 8, 128])
self.h torch.Size([1, 8, 128])
self.A torch.Size([1, 8, 256])
RoboVisV1(
  (w): Conv1d(8, 8, kernel_size=(3,), stride=(1,), padding=same)
  (w1): Conv1d(2, 8, kernel_size=(3,), stride=(1,), padding=same)
  (a1): Sequential(
    (0): ReLU(inplace=True)
    (1): MaxPool1d(kernel_size=2, stride=2, padding=0, dilation=1, ceil_mode=False)
  )
  (w2): Sequential(
    (0): Conv1d(8, 8, kernel_size=(3,), stride=(1,), padding=same)
    (1): ReLU(inplace=True)
    (2): MaxPool1d(kernel_size=2, stride=2, padding=0, dilation=1, ceil_mode=False)
  )
)
self.h torch.Size([1, 8, 256])
self.A torch.Size([1, 8, 256])
self.h torch.Size([1, 8, 128])
torch.Size([1, 8, 64])
self.h torch.Size([1, 8, 128])
self.A torch.Size([1, 8, 256])